…
   "metadata": {},
   "source": [
    "Run the following cell to check the model of bge-base-en-v1.5. It has the exactly same structure of BERT-base, 12 encoder layers and hidden dimension of 768.\n",
    "\n",
    "Note that the corresponding models of BGE and BGE-v1.5 have same structures. For example, bge-base-en and bge-base-en-v1.5 have the same structure."
   ]
  },
  {
   "cell_type": "code",
   "execution_count": 20,
   "metadata": {},
   "outputs": [
    {
     "data": {
      "text/plain": [
       "BertModel(\n",
       "  (embeddings): BertEmbeddings(\n",
       "    (word_embeddings): Embedding(30522, 768, padding_idx=0)\n",
       "    (position_embeddings): Embedding(512, 768)\n",
       "    (token_type_embeddings): Embedding(2, 768)\n",
       "    (LayerNorm): LayerNorm((768,), eps=1e-12, elementwise_affine=True)\n",
       "    (dropout): Dropout(p=0.1, inplace=False)\n",
       "  )\n",
       "  (encoder): BertEncoder(\n",
       "    (layer): ModuleList(\n",
       "      (0-11): 12 x BertLayer(\n",
       "        (attention): BertAttention(\n",
       "          (self): BertSelfAttention(\n",
       "            (query): Linear(in_features=768, out_features=768, bias=True)\n",
       "            (key): Linear(in_features=768, out_features=768, bias=True)\n",
       "            (value): Linear(in_features=768, out_features=768, bias=True)\n",
       "            (dropout): Dropout(p=0.1, inplace=False)\n",
       "          )\n",
       "          (output): BertSelfOutput(\n",
       "            (dense): Linear(in_features=768, out_features=768, bias=True)\n",
       "            (LayerNorm): LayerNorm((768,), eps=1e-12, elementwise_affine=True)\n",
       "            (dropout): Dropout(p=0.1, inplace=False)\n",
       "          )\n",
       "        )\n",
       "        (intermediate): BertIntermediate(\n",
       "          (dense): Linear(in_features=768, out_features=3072, bias=True)\n",
       "          (intermediate_act_fn): GELUActivation()\n",
       "        )\n",
       "        (output): BertOutput(\n",
       "          (dense): Linear(in_features=3072, out_features=768, bias=True)\n",
       "          (LayerNorm): LayerNorm((768,), eps=1e-12, elementwise_affine=True)\n",
       "          (dropout): Dropout(p=0.1, inplace=False)\n",
       "        )\n",
       "      )\n",
       "    )\n",
       "  )\n",
       "  (pooler): BertPooler(\n",
       "    (dense): Linear(in_features=768, out_features=768, bias=True)\n",
       "    (activation): Tanh()\n",
       "  )\n",
       ")"
      ]
     },
     "execution_count": 20,
     "metadata": {},
     "output_type": "execute_result"
    }
   ],
   "source": [
    "model.eval()"
   ]
  },
  {
   "cell_type": "markdown",
   "metadata": {},
   "source": [
    "First, let's tokenize the sentences."
   ]
  },
  {
   "cell_type": "code",
…
